SPEECH EMOTION PROBLEM/midas_cnn.pt (torch_old, 67151 bytes, 14 tensors)

layer1.0.weight f4 [4, 2, 3, 3]
-0.026185464 -0.19840346 0.12323588 -0.0012583737 -0.3145586 -0.049722627 -0.30368865 -0.13823833
0.07081737 -0.18739413 0.20361242 -0.06415874 -0.21757597 0.06869061 0.16981456 -0.29346728
-0.06593385 -0.0562797 0.24276824 -0.11278092 -0.0017749841 0.118850924 -0.0019302812 0.22340155
0.22400598 0.18168159 -0.24767902 0.010816868 0.0353783 -0.00578016 0.016553788 0.16669244
-0.15970661 0.120134205 0.21345837 0.10500244 -0.12143837 -0.12268292 -0.18132213 -0.12798947
-0.257689 0.190005 -0.14731285 -0.111714125 -0.037943527 -0.08468247 -0.119444385 0.010644193
-0.1561862 -0.03846463 -0.029747482 0.07292401 0.009441581 0.07228276 -0.11771284 -0.18027034
0.08353983 0.081242524 -0.107372195 -0.19698048 -0.04107031 0.20887685 0.15911964 0.15030232
-0.10310532 -0.14045921 -0.22703801 0.19020572 0.011801737 -0.2203985 -0.075262494 -0.1014378
00000000: e682 d6bc 472a 4bbe 1863 fc3d 04f0 a4ba
00000010: d30d a1be f4a9 4bbd 147d 9bbe 598e 0dbe
00000020: b308 913d 3fe4 3fbe c67f 503e a865 83bd
00000030: 3ccc 5ebe aaad 8c3d dee3 2d3e 5841 96be
00000040: 5408 87bd 8b85 66bd 3d98 783e aff9 e6bd
00000050: 95a6 e8ba 1d68 f33d 7d01 fdba 60c3 643e
00000060: d361 653e bd0a 3a3e 929f 7dbe 3c39 313c
00000070: d6e8 103d 7f67 bdbb cf9b 873c 6cb1 2a3e
00000080: 218a 23be ec08 f63d d594 5a3e 850b d73d
00000090: aeb4 f8bd 2f41 fbbd 82ac 39be ac0f 03be
000000a0: d0ef 83be ac90 423e 2ed9 16be 60ca e4bd
000000b0: ac6a 1bbd 016e adbd 429f f4bd fb64 2e3c
000000c0: 46ef 1fbe 168d 1dbd feb0 f3bc 2f59 953d
000000d0: dcb0 1a3c fc08 943d 6e13 f1bd ca98 38be
000000e0: ee16 ab3d 7b62 a63d f4e5 dbbd 40b5 49be
000000f0: 5739 28bd d0e3 553e 42f0 223e dae8 193e
00000100: e228 d3bd 8ad4 0fbe a77c 68be 4ac5 423e
00000110: 135c 413c 25b0 61be 3923 9abd 9fbe cfbd

layer1.0.bias f4 [4]
-0.07247678 -0.14696996 -0.10112188 -0.19523017
00000000: b56e 94bd 4b7f 16be fd18 cfbd 6bea 47be

layer1.1.weight f4 [4]
0.9535407 1.1332319 0.94525987 1.0144898
00000000: 3e1b 743f be0d 913f 8dfc 713f cdda 813f

layer1.1.bias f4 [4]
0.12479433 0.032136124 0.1447909 0.08397055
00000000: 2b94 ff3d 2ba1 033d 1144 143e c0f8 ab3d

layer1.1.running_mean f4 [4]
0.82020736 -0.939843 0.7195624 0.245261
00000000: 1cf9 513f 8d99 70bf 3e35 383f b325 7b3e

layer1.1.running_var f4 [4]
30.883398 20.416656 22.004179 6.3858933
00000000: 3311 f741 5055 a341 8f08 b041 3d59 cc40

layer2.0.weight f4 [2, 4, 3, 3]
-0.11824004 -0.12107263 -0.035958547 0.05360866 -0.0003475472 -0.1492577 0.05770484 0.03184664
-0.005480567 -0.20450123 -0.13150278 -0.048492253 -0.12654507 0.24897255 0.13042013 0.20406379
0.074392825 0.121728525 0.1601153 -0.07226078 -0.15666708 0.12207762 0.08686779 0.047618654
-0.06622984 -0.064472266 -0.12920447 0.08439078 0.17867121 -0.109783575 0.14851397 -0.1888684
-0.0038383694 -0.081966 -0.009438747 0.15277418 -0.11165346 0.06276709 0.13105665 0.016901445
-0.08303855 0.1488613 -0.017336454 0.052700628 0.01689319 -0.0652422 0.23200028 0.2557916
-0.14462227 0.074347995 -0.22842535 -0.061675835 -0.08587488 -0.13639855 0.15350208 0.09262025
-0.10470119 -0.062408186 0.08624148 0.03792963 -0.16055523 0.09475712 0.13194235 -0.04328517
-0.10326275 -0.08423024 -0.19122489 0.019417385 0.12979665 0.0771912 -0.052699763 -0.16772991
00000000: d627 f2bd edf4 f7bd 4549 13bd c194 5b3d
00000010: ff36 b6b9 03d7 18be e95b 6c3d 9f71 023d
00000020: 5496 b3bb c568 51be aaa8 06be d09f 46bd
00000030: 0895 01be a9f2 7e3e db8c 053e 19f6 503e
00000040: 445b 983d ce4c f93d 44f5 233e 76fd 93bd
00000050: 566d 20be d503 fa3d bde7 b13d c70b 433d
00000060: 83a3 87bd 090a 84bd 2d4e 04be 13d5 ac3d
00000070: 96f5 363e 36d6 e0bd 0c14 183e b866 41be
00000080: 278d 7bbb cadd a7bd f9a4 1abc d670 1c3e
00000090: 92aa e4bd 088c 803d b733 063e e674 8a3c
000000a0: 1e10 aabd 196f 183e 2e05 8ebc 9ddc 573d
000000b0: 9663 8a3c b49d 85bd 7b91 6d3e 1ef7 823e
000000c0: dc17 14be c343 983d 56e8 69be cd9f 7cbd
000000d0: 2bdf afbd 10ac 0bbe a62f 1d3e b0af bd3d
000000e0: 946d d6bd ba9f 7fbd 609f b03d 1a5c 1b3d
000000f0: 9768 24be 0510 c23d e51b 073e ca4b 31bd
00000100: 6c7b d3bd e780 acbd 75d0 43be 3511 9f3c
00000110: 6ae9 043e 6b16 9e3d b5db 57bd 64c1 2bbe

layer2.0.bias f4 [2]
-0.1471235 -0.13250415
00000000: 8ba7 16be 2baf 07be

layer2.1.weight f4 [2]
1.3514272 1.6099602
00000000: 91fb ac3f 2d13 ce3f

layer2.1.bias f4 [2]
-0.099263206 -0.13383727
00000000: 824a cbbd a30c 09be

layer2.1.running_mean f4 [2]
-0.10168821 -0.17208299
00000000: e941 d0bd 8636 30be

layer2.1.running_var f4 [2]
0.057171047 0.042023957
00000000: 302c 6a3d 5021 2c3d

fc1.weight f4 [5, 3192]
-0.018031703 0.036347847 0.08298761 0.05239925 -0.007781788 -0.013065654 -0.12164287 -0.0018594835
0.017034963 0.0031864492 0.04547479 0.002043049 -0.029579887 -0.042430215 0.004109775 -0.036298543
0.064526185 -0.110746436 -0.00023100736 -0.0040551303 0.058179576 -0.026883863 -0.033812087 0.052110344
-0.0485279 0.08344227 -0.037009288 -0.068218715 0.013152632 -0.07870819 0.0182717 -0.03323063
0.00041215844 0.00016095061 0.022815092 -0.018572778 -0.014790967 0.013318308 0.0853461 -0.018158665
0.036900423 0.0098487325 -0.045341443 -0.04984572 0.06402102 0.007842571 -0.032466233 0.01314556
0.0021940588 -0.04077294 0.017579723 -0.018924857 -0.17544204 0.027776727 -0.029170275 0.055979606
-0.04197963 -0.024353307 0.033131935 -0.04985087 0.08024044 -0.028004706 -0.028025527 0.038173094
0.025454218 0.027549915 -0.02301391 -0.049537715 -0.031353142 -0.01765719 0.00085510465 -0.043343343
0.07549177 -0.024033578 -0.046733767 -0.025944034 0.12908854 0.044926062 0.028875787 0.0039975545
-0.0024716572 0.0172403 -0.06175151 0.02628055 -0.022771286 -0.039605897 0.0026289853 0.03712549
0.05638752 -0.039355747 0.016102508 0.024673834 -0.0021249522 0.0060175024 0.018876681 0.024163699
0.014692844 0.0045293826 -0.008268709 0.00881441 -0.012307846 -0.025363088 0.0010660503 -0.008263755
0.05259861 -0.0040120333 -0.024597283 -0.008717269 -0.024029769 -0.009965071 -0.0044595157 0.045620203
-0.010037135 0.025075179 -0.029213594 -0.026159566 0.013740038 -0.02081184 0.051084798 0.006403836
0.028786521 0.006461564 -0.008128487 0.03365299 0.02733122 0.014379778 -0.011319307 0.015395679
-0.018912546 0.032914795 0.042956285 0.0027029822 -0.021736037 -0.058047157 -0.04248695 0.032619614
0.008478104 -0.016340528 0.007864321 0.00034800434 -0.013964286 -0.045256518 -0.001218375 0.005512914
0.018088002 0.019805018 -0.026742617 -0.007275798 -0.05482789 -0.043125167 -0.007813804 -0.050244205
0.09079351 -0.014989011 0.029352536 0.09919365 0.08492233 0.04640949 -0.005215301 0.056263555
0.12455653 0.01794163 0.056585833 0.010221668 -0.03507213 0.06829803 0.0028745888 0.036755636
-0.080477044 0.042211525 -0.054188337 0.027315557 0.038271856 0.06806983 0.01982744 0.023522222
0.032722663 0.06734627 0.09467944 0.030810652 -0.031378675 0.025141973 0.036975555 -0.1373448
-0.013364806 0.06708312 0.050113287 -0.01731077 0.03788308 0.024459574 -0.063867256 -0.01965168
-0.05287771 0.06876414 0.016637754 0.10719606 -0.021171276 -0.022324605 0.11374716 -0.05432532
-0.059373505 0.118276 -0.041665997 -0.056116827 -0.02766678 -0.01499017 0.034884814 0.05846875
-0.046712484 0.012531755 -0.01874115 -0.023548365 -0.05305811 -0.06342468 -0.009569065 -0.029928716
-0.046963252 -0.026567305 -0.0418351 -0.045972403 -0.12340584 0.020929951 -0.061453007 0.022795593
0.0062841354 0.0070540295 0.004211165 -0.03405544 -0.0204514 0.023750156 -0.0065736873 0.0895237
-0.055114225 0.10019074 0.0055158082 0.030349046 0.0391253 0.05024082 -0.023316728 0.029936729
-0.006290356 -0.08876735 0.081999704 0.02975241 0.0028862203 -0.053925395 -0.007990386 -0.021216493
-0.06915559 0.0010648483 0.0066600745 0.0026524954 0.0017859131 0.03010846 -0.07331231 0.05442362
00000000: 39b7 93bc 7be1 143d 68f5 a93d 99a0 563d
00000010: 5efe febb 5311 56bc e61f f9bd eab9 f3ba
00000020: e88c 8b3c bfd3 503b c643 3a3d ade4 053b
00000030: 8551 f2bc 4ecb 2dbd 4bab 863b c8ad 14bd
00000040: 4e26 843d 07cf e2bd 913a 72b9 e6e0 84bb
00000050: b54d 6e3d 8c3b dcbc 8b7e 0abd a871 553d
00000060: 31c5 46bd c8e3 aa3d 0d97 17bd 41b6 8bbd
00000070: 237e 573c c231 a1bd 88ae 953c d71c 08bd
00000080: f816 d839 dac4 2839 b7e6 ba3c f025 98bc
00000090: d055 72bc 0835 5a3c f0c9 ae3d 7bc1 94bc
000000a0: e624 173d 945c 213c f3b7 39bd 072b 4cbd
000000b0: 741d 833d 207e 003c 50fb 04bd 7a60 573c
000000c0: 33ca 0f3b 8701 27bd 5a03 903c 4d08 9bbc
000000d0: 14a7 33be 058c e33c 80f6 eebc df4a 653d
000000e0: d5f2 2bbd 9680 c7bc 5ab5 073d 6d30 4cbd
000000f0: 1a55 a43d 206a e5bc ca95 e5bc 645b 1c3d
00000100: 5d85 d03c 5cb0 e13c ab87 bcbc 0fe8 4abd
00000110: 276c 00bd d0a5 90bc 1a29 603a ca88 31bd
00000120: 6e9b 9a3d 11e2 c4bc e86b 3fbd 9588 d4bc
00000130: c92f 043e 6404 383d ea8c ec3c ebfd 823b
00000140: 87fb 21bb 883b 8d3c 27ef 7cbd 4f4a d73c
00000150: d98a babc cb39 22bd 0e4b 2c3b e610 183d
00000160: 9af6 663d 7e33 21bd 68e9 833c c820 ca3c
00000170: c842 0bbb 782e c53b 45a3 9a3c f3f2 c53c
00000180: 41ba 703c 376b 943b 7b79 07bc 516a 103c
00000190: d9a6 49bc 40c6 cfbc b6ba 8b3a b364 07bc
000001a0: a471 573d 6077 83bb 3e80 c9bc e0d2 0ebc
000001b0: 14da c4bc 8a44 23bc 2121 92bb 40dc 3a3d
000001c0: cc72 24bc 766a cd3c 5951 efbc 964c d6bc
000001d0: e51d 613c 987d aabc 4b3e 513d 45d7 d13b
000001e0: b6d1 eb3c 87bb d33b 582d 05bc b8d7 093d
000001f0: b9e5 df3c 2999 6b3c 9d74 39bc 283e 7c3c
00000200: 7cee 9abc aad1 063d eef2 2f3d 8424 313b
00000210: c60f b2bc dbc2 6dbd cc06 2ebd 259c 053d
00000220: bfe7 0a3c 92dc 85bc 5ad9 003c 5a74 b639
00000230: 76ca 64bc e65e 39bd e2b1 9fba ada5 b43b
00000240: 4a2d 943c 223e a23c 5513 dbbc d169 eebb
00000250: 3693 60bd 04a4 30bd 7805 00bc decc 4dbd
00000260: f3f1 b93d 7894 75bc bb74 f03c 0a26 cb3d
00000270: c2eb ad3d e117 3e3d 1ee5 aabb 9d74 663d
00000280: 7e17 ff3d 53fa 923c 8cc6 673d c878 273c
00000290: cba7 0fbd d6df 8b3d 9963 3c3b 148d 163d
000002a0: 26d1 a4bd fee5 2c3d 97f4 5dbd e0c4 df3c
000002b0: f3c2 1c3d 3268 8b3d 286d a23c adb1 c03c
000002c0: 3308 063d d7ec 893d 4be7 c13d 9f66 fc3c
000002d0: ed86 00bd 8af6 cd3c ae73 173d 1ea4 0cbe
000002e0: 0ff8 5abc e062 893d 9743 4d3d 51cf 8dbc
000002f0: 4a2b 1b3d 725f c83c d6cc 82bd 8ffc a0bc
00000300: 4c96 58bd 37d4 8c3d e64b 883c 9c89 db3d
00000310: 626f adbc 17e2 b6bc 45f4 e83d 3a84 5ebd
00000320: a231 73bd b03a f23d f7a9 2abd c2da 65bd
00000330: 71a5 e2bc 5499 75bc 61e3 0e3d ee7c 6f3d
00000340: 9755 3fbd fd51 4d3c 0a87 99bc 80e8 c0bc
00000350: 7653 59bd cce4 81bd 91c7 1cbc 112d f5bc
00000360: 8a5c 40bd ada3 d9bc 485b 2bbd 8f4d 3cbd
00000370: 33bc fcbd 4a75 ab3c 26b6 7bbd d3bd ba3c
00000380: 26eb cd3b 7d25 e73b d0fd 893b b87d 0bbd
00000390: b289 a7bc b08f c23c 1668 d7bb 3458 b73d
000003a0: 74bf 61bd cd30 cd3d f4bd b43b 909e f83c
000003b0: da41 203d 51c9 4d3d b902 bfbc df3d f53c
000003c0: 551f cebb a8cb b5bd 76ef a73d 53bb f33c
000003d0: be26 3d3b e0e0 5cbd 1cea 02bc 36ce adbc
000003e0: 72a1 8dbd 6192 8b3a c13c da3b 7dd5 2d3b
000003f0: 4d15 ea3a 04a6 f63c c424 96bd 4deb 5e3d

fc1.bias f4 [5]
0.045970507 -0.0011690735 -0.024277698 -0.021829592 0.010868612
00000000: 924b 3c3d 993b 99ba 06e2 c6bc f9d3 b2bc
00000010: 4312 323c
